model_final.ckpt (torch_old, 92068 bytes, 14 tensors)

layer1.0.weight f4 [16, 1, 5, 5]
0.13158354 0.11903078 0.2060734 0.15688284 -0.18061216 0.11456041 0.14736933 0.073452495
0.23903412 -0.054897305 -0.08054357 -0.022935672 0.09690524 0.2943709 0.0023790898 -0.15963529
-0.13208881 0.17623067 -0.07851558 0.036970615 -0.14520566 0.0007022066 -0.01819197 0.20584199
0.16995871 0.0827053 -0.062298346 0.16143349 -0.10781282 -0.07202849 0.030447962 0.1536468
-0.15732193 -0.078569375 0.082432985 0.00934193 -0.037495267 0.27496782 -0.08742275 0.025384882
-0.033567272 -0.10217926 0.11922061 -0.11685001 -0.054461174 0.031219998 -0.03654477 0.23382297
-0.036190223 0.19435585 0.22993651 -0.014014219 0.05151235 -0.16094825 -0.0050077387 0.19291866
0.024270201 -0.10840799 -0.08037703 -0.16216156 0.11639567 0.20555626 0.014610106 -0.15089197
-0.13634445 -0.017124379 0.08602944 -0.06940936 -0.058255535 -0.1660811 0.074626334 0.076821774
-0.17709039 -0.113725856 0.046183452 -0.17073494 -0.10548674 -0.14963125 -0.07445121 -0.0422215
0.0956032 -0.0380214 -0.18192422 -0.17255776 -0.044808947 -0.09586498 0.005838695 -0.09385558
-0.12244753 -0.047682993 0.1318576 0.10447834 0.12741806 -0.13355933 -0.1237205 0.21376489
0.29140478 0.11421273 0.18821226 -0.15355982 0.14671408 -0.08150122 0.14125723 0.18810606
-0.04051946 0.17667581 -0.11520653 0.09149745 -0.034597483 0.12378796 -0.14300549 0.2629532
-0.042018417 0.13858466 -0.0858114 0.019343494 0.071442254 -0.037274674 0.12472022 0.11422811
0.009125871 0.15116093 0.15041053 0.07284797 -0.0077783256 -0.11625383 -0.1059974 -0.08213034
-0.036785822 -0.06909925 0.15204234 0.030038016 0.0059345183 0.12621959 0.037341382 0.14151245
0.23871739 0.11564392 0.023298169 0.05696171 -0.10115572 -0.17436548 0.14494807 -0.079297066
-0.101285726 -0.16187756 -0.13174964 -0.055821907 -0.029796662 -0.018226072 -0.1893449 -0.20988408
-0.17614868 -0.13170487 -0.09902468 0.040055726 -0.20959531 -0.13300957 0.084684804 -0.010690705
0.035148893 -0.19947447 -0.110576294 -0.10010978 0.05233379 -0.12399208 -0.14965193 0.06484373
0.14511834 0.17167641 -0.13363299 0.08048108 -0.11332549 0.08660101 0.10862842 -0.034472942
-0.04136422 -0.10311513 0.004700472 0.23814493 -0.03552995 -0.06975313 -0.11921385 -0.13332237
0.06768518 0.19159934 0.111020654 -0.14885299 -0.15583676 -0.063389406 -0.07509812 0.1529394
-0.038122505 -0.024054857 -0.12278669 -0.18464771 0.16376258 0.0358277 0.044563368 -0.087969914
0.26485074 0.14868125 -0.10840876 0.120843135 -0.06769603 0.052050475 0.07663809 -0.11662056
0.09249722 -0.008291078 0.30601054 0.0039832694 0.05789701 -0.109866165 -0.049737956 -0.08965809
-0.06498372 -0.10743557 -0.00925264 -0.053060077 0.093696006 -0.09983816 -0.08163487 -0.050362244
0.06977755 0.18659554 -0.17211314 0.21802999 0.2870656 0.13397993 -0.103262804 0.16998377
-0.01775002 0.15963773 0.10391446 -0.014206817 0.0023287009 -0.013855751 -0.090033144 -0.173013
-0.05229421 -0.03158042 -0.04815264 -0.095031664 0.03210028 -0.016037602 -0.044595487 -0.07617654
-0.07352204 0.14046931 -0.10590425 -0.03504524 -0.09238207 -0.052845493 -0.08434375 -0.069098465
00000000: d6bd 063e 69c6 f33d e804 533e e5a5 203e
00000010: 65f2 38be a69e ea3d fce7 163e 436e 963d
00000020: 5cc5 743e ffdb 60bd 07f4 a4bd 97e3 bbbc
00000030: 4176 c63d c8b7 963e 81ea 1b3b 6f77 23be
00000040: 4a42 07be d075 343e c7cc a0bd 806e 173d
00000050: cbb0 14be 4a14 383a 5407 95bc 3ec8 523e
00000060: a809 2e3e 6561 a93d 8d2c 7fbd d24e 253e
00000070: f8cc dcbd ac83 93bd 016e f93c 9655 1d3e
00000080: 0019 21be fbe8 a0bd a0d2 a83d e50e 193c
00000090: a394 19bd 95c8 8c3e b30a b3bd f5f3 cf3c
000000a0: d67d 09bd 5c43 d1bd ef29 f43d 0f4f efbd
000000b0: ae12 5fbd 15c1 ff3c f8af 15bd 4a6f 6f3e
000000c0: 333c 14bd 3805 473e 7a74 6b3e e59b 65bc
000000d0: 9dfe 523d 9ecf 24be f517 a4bb 788c 453e
000000e0: 4dd2 c63c 0205 debd b69c a4bd ae0d 26be
000000f0: da60 ee3d 577d 523e 3a5f 6f3c 6d83 1abe
00000100: e19d 0bbe 6d48 8cbc 3430 b03d 7f26 8ebd
00000110: 5b9d 6ebd 2a11 2abe b1d5 983d bc54 9d3d
00000120: 2f57 35be 1ae9 e8bd dc2a 3d3d 24d5 2ebe
00000130: 6f09 d8bd ef38 19be e079 98bd 74f0 2cbd
00000140: 9ccb c33d 54bc 1bbd 584a 3abe fbb2 30be
00000150: 9689 37bd dc54 c4bd 8652 bf3b 5b37 c0bd
00000160: c5c5 fabd 3e4f 43bd ae05 073e bdf8 d53d
00000170: e179 023e c7c3 08be 2c61 fdbd 2fe5 5a3e
00000180: 0233 953e 5de8 e93d b7ba 403e c93e 1dbe
00000190: 373c 163e 1dea a6bd bca5 103e e09e 403e
000001a0: bcf7 25bd 81ea 343e 67f1 ebbd 0463 bb3d
000001b0: 17b6 0dbd 8b84 fd3d 0870 12be cda1 863e
000001c0: 811b 2cbd 23e9 0d3e e3bd afbd 3f76 9e3c
000001d0: 5150 923d 54ad 18bd 516d ff3d 6df0 e93d
000001e0: ad84 153c eec9 1a3e 3805 1a3e 5131 953d
000001f0: 53e1 febb 7d16 eebd 2a15 d9bd f433 a8bd
00000200: bbac 16bd e883 8dbd fdb0 1b3e 4912 f63c
00000210: 5976 c23b b53f 013e 47f3 183d a4e8 103e
00000220: 5572 743e b8d6 ec3d cddb be3c af50 693d
00000230: bb2a cfbd dd8c 32be 446d 143e 8066 a2bd
00000240: e46e cfbd 3bc3 25be 61e9 06be 83a5 64bd
00000250: 2118 f4bc d84e 95bc a1e3 41be daeb 56be
00000260: 5260 34be a4dd 06be 74cd cabd 7911 243d
00000270: 27a0 56be a933 08be 3a6f ad3d 1128 2fbc
00000280: 49f8 0f3d 0943 4cbe d375 e2bd 5b06 cdbd
00000290: f55b 563d 8fef fdbd 5b3e 19be cacc 843d
000002a0: e799 143e f1cb 2f3e 16d7 08be 44d3 a43d
000002b0: 3217 e8bd df5b b13d 9478 de3d 8033 0dbd
000002c0: 876d 29bd 062e d3bd 6b06 9a3b 44dc 733e
000002d0: da87 11bd bbda 8ebd 6426 f4bd a985 08be
000002e0: 879e 8a3d 9e32 443e cc5e e33d eb6c 18be
000002f0: ac93 1fbe 4ed2 81bd 0bcd 99bd 259c 1c3e
00000300: 5826 1cbd b10e c5bc 9777 fbbd 4a14 3dbe
00000310: 61b1 273e 11c0 123d 1488 363d 9229 b4bd
00000320: 849a 873e e63f 183e 6905 debd 9b7c f73d
00000330: 37a4 8abd e132 553d 6ef4 9c3d c3d6 eebd
00000340: 2f6f bd3d 4dd7 07bc 6aad 9c3e 1686 823b
00000350: 6a25 6d3d 8301 e1bd 07ba 4bbd a99e b7bd
00000360: 2f16 85bd 2e07 dcbd 6398 17bc 8655 59bd
00000370: b1e3 bf3d f377 ccbd 2f30 a7bd a448 4ebd
00000380: 88e7 8e3d e712 3f3e 6d3e 30be 4143 5f3e
00000390: 43fa 923e 0932 093e 737b d3bd 3a10 2e3e
000003a0: 7d68 91bc 1378 233e 1bd1 d43d b6c3 68bc
000003b0: 1e9d 183b 3b03 63bc 4c63 b8bd 522a 31be
000003c0: 7432 56bd 785a 01bd b43b 45bd f69f c2bd
000003d0: 957b 033d 4a61 83bc c2a9 36bd 7202 9cbd
000003e0: b992 96bd 30d7 0f3e 54e4 d8bd 998b 0fbd
000003f0: d032 bdbd 8474 58bd 6abc acbd 7f83 8dbd

layer1.0.bias f4 [16]
0.09772589 0.021668361 -0.030839074 0.09648197 -0.10389795 -0.13721232 -0.087587364 0.1250935
-0.0070595397 0.14510418 0.09203528 -0.037900638 -0.16304882 -0.040701322 -0.045877896 0.13376252
00000000: 8324 c83d d981 b13c 3aa2 fcbc 5798 c53d
00000010: 73c8 d4bd 6381 0cbe 0161 b3bd 8318 003e
00000020: b653 e7bb 3196 143e fe7c bc3d b33d 1bbd
00000030: 45f6 26be 6eb6 26bd 76ea 3bbd 0bf9 083e

layer1.1.weight f4 [16]
1.0597627 0.923965 1.0498735 1.0295681 1.0184098 0.97293526 1.027076 0.91694057
0.98895055 1.0116817 0.9415331 0.9810427 1.00254 1.0018377 1.0383868 1.0088339
00000000: 4ea6 873f f888 6c3f 4162 863f e3c8 833f
00000010: 415b 823f 4912 793f 3a77 833f 9ebc 6a3f
00000020: dd2b 7d3f c97e 813f 5008 713f 9d25 7b3f
00000030: 3b53 803f 383c 803f dce9 843f 7821 813f

layer1.1.bias f4 [16]
-0.013506803 -0.09449405 -0.09429101 -0.095821746 -0.09363969 -0.04921565 -0.028414203 -0.027541852
-0.06089376 0.011692953 -0.1003302 -0.029184448 -0.08652806 -0.049427234 -0.12829554 -0.047822613
00000000: a34b 5dbc 1986 c1bd a51b c1bd 313e c4bd
00000010: 2ac6 bfbd 5996 49bd e7c4 e8bc 739f e1bc
00000020: bc6b 79bd cd93 3f3c eb79 cdbd 3914 efbc
00000030: a035 b1bd 3674 4abd e85f 03be a5e1 43bd

layer1.1.running_mean f4 [16]
1.0182545 0.3147067 -0.26482993 -0.23874715 0.8462884 -0.21663387 -0.93502283 -0.1893047
0.1300252 0.39615318 0.21776207 -1.2126153 -0.19383644 0.42816576 0.909165 0.041306935
00000000: 2a56 823f 3d21 a13e ca97 87be 227a 74be
00000010: 5ba6 583f 45d5 5dbe a85d 6fbf 17d9 41be
00000020: 5325 053e 97d4 ca3e 05fd 5e3e fa36 9bbf
00000030: 0f7d 46be 8b38 db3e 0abf 683f 7631 293d

layer1.1.running_var f4 [16]
0.12150316 0.03281892 0.15507492 0.14844503 0.07362825 0.04485865 0.15858346 0.03556975
0.07443102 0.074166834 0.042668264 0.09968421 0.056289677 0.12237989 0.07934287 0.09472356
00000000: a6d6 f83d 226d 063d f6cb 1e3e f901 183e
00000010: 68ca 963d b4bd 373d b463 223e 96b1 113d
00000020: 4a6f 983d c8e4 973d ebc4 2e3d 3c27 cc3d
00000030: 0190 663d 4fa2 fa3d 847e a23d 6dfe c13d

layer2.0.weight f4 [32, 16, 5, 5]
-0.010620308 0.0038222542 -0.01048467 0.041468114 -0.0041563683 -0.0012421036 -0.01018656 0.07885098
0.066755995 0.007105334 -0.008591912 0.070501976 0.014844497 0.05544753 0.019831415 0.016278438
-0.02524728 0.035005365 -0.02487439 -0.0028060097 0.0010534191 0.039137185 -0.001738895 -0.045054745
-0.009468429 -0.030399254 -0.027617535 0.031445038 -0.026390389 -0.0034947477 -0.024443612 -0.05397207
-0.044801347 -0.005234859 0.015317118 -0.00045517788 -0.021508453 -0.05444296 -0.039725956 -0.008090756
0.007995287 0.021689843 -0.05121377 -0.06556691 0.014784217 0.027320312 0.03413279 0.0043734275
-0.0148105 0.030355044 -0.029106898 -0.011942731 -0.06493087 -0.0044487584 0.013077812 -0.0059131705
-0.05954171 -0.06937233 0.01231566 0.045722887 -0.03862476 -0.021533553 -0.06372965 -0.03198415
0.056814414 0.0010246398 -0.026899144 0.003059213 0.02510035 -0.0036155423 0.020566555 -0.038266942
-0.037676796 0.046701446 0.038284145 -0.06535182 0.031760167 -0.012998542 0.010692782 0.043370456
0.045055483 0.07817533 0.024797227 0.041449968 0.0020293938 -0.03305849 0.05316082 0.054303806
0.03819621 0.025329122 0.017427113 0.045234602 0.001016755 -0.041335214 0.013200312 0.025655277
0.025126137 -0.028922841 0.025736934 0.0081833275 0.03573361 0.0063608093 -0.057980835 0.011281911
0.036359258 0.03807288 -0.017157013 -0.062587425 0.011148552 0.040288877 0.0037619853 -0.008192399
-0.008730205 -0.04914783 0.007285755 -0.042114012 0.016322045 -0.056199837 -0.06103988 -0.015422067
-0.019444896 -0.007854662 0.038517192 -0.027229758 -0.012780281 0.002355249 0.003695486 0.005427161
0.03433469 0.008751521 -0.011369372 0.029448433 0.02367174 0.06832213 0.011789471 0.025632482
-0.0004921352 -0.041274108 -0.048949193 0.0054746442 0.04187749 0.01954757 -0.0075150304 -0.01874125
-0.03285469 0.0053451015 -0.018836984 0.02887308 0.017977891 0.018052857 0.012208761 0.0018271933
-0.028939528 -0.031163258 -0.00470584 -0.049377743 -0.0465977 -0.07185482 -0.004522159 -0.0040499233
0.02584311 -0.012504569 -0.058854714 -0.039442785 0.007320688 -0.0070783454 -0.0011998645 -0.018750127
0.06576381 0.0043774955 -0.020114146 0.013763955 -0.008736577 0.027706753 0.013253061 0.0021644635
-0.054133873 -0.016737185 0.0603213 0.05374291 -0.015388821 0.020851506 -0.05049747 0.0005156109
-0.039859902 0.02360258 0.025655309 -0.009606387 -0.005087606 0.02473169 -0.015118848 -0.0015977566
-0.025294328 -0.030871728 -0.05359208 -0.010768677 -0.01375732 -0.0121733565 -0.0143676605 -0.038014058
0.010406035 0.044242274 0.010303087 0.0051894155 -0.021192148 -0.007258615 0.0154101765 -0.06505676
-0.0042787828 0.0021367546 0.025420742 -0.0140945455 -0.036689032 -0.06352494 -0.059550244 -0.03041604
0.018211838 -0.058499295 -0.005717636 -0.02858757 -0.03177989 -0.022723258 0.044844903 -0.0180922
-0.025258057 0.02133424 0.025836805 0.039245944 0.03196859 0.017637083 0.007470745 -0.0077889673
-0.0015930707 0.029976042 -0.018635277 -0.012863931 -0.034121428 -0.010498105 0.03640309 -0.008051565
0.025605246 -0.017123995 -0.06671043 0.017882964 0.0105712805 0.036519464 0.012279557 -0.016936896
-0.035344567 -0.004560886 -0.051743023 -0.040623862 0.004085858 -0.010294434 0.041046757 -0.039415907
00000000: cd00 2ebc c97e 7a3b e5c7 2bbc 78da 293d
00000010: 2532 88bb 15ce a2ba 88e5 26bc 9f7c a13d
00000020: 5eb7 883d ddd3 e83b 17c5 0cbc 5763 903d
00000030: 5536 733c f31c 633d 7e75 a23c 5c5a 853c
00000040: 62d3 cebc c961 0f3d 60c5 cbbc 08e5 37bb
00000050: e112 8a3a 504e 203d a2eb e3ba 538b 38bd
00000060: 7821 1bbc db07 f9bc 2b3e e2bc 83cc 003d
00000070: a830 d8bc 2308 65bb f83d c8bc d111 5dbd
00000080: 9e81 37bd 2e89 abbb a6f4 7a3c f1a4 eeb9
00000090: 7f32 b0bc 95ff 5ebd afb7 22bd 178f 04bc
000000a0: aafe 023c e6ae b13c 88c5 51bd f247 86bd
000000b0: 8039 723c d9ce df3c d3ce 0b3d f84e 8f3b
000000c0: bda7 72bc 24ab f83c 9771 eebc 72ab 43bc
000000d0: 7afa 84bd e4c6 91bb 5244 563c 45c3 c1bb
000000e0: 02e2 73bd 1513 8ebd 9fc7 493c ec47 3b3d
000000f0: ff34 1ebd 2267 b0bc b184 82bd d001 03bd
00000100: 3bb6 683d 354d 863a 985b dcbc 147d 483b
00000110: 409f cd3c bcf2 6cbb 317b a83c ccbd 1cbd
00000120: fc52 1abd 044a 3f3d d6cf 1c3d 2dd7 85bd
00000130: f316 023d d6f7 54bc c730 2f3c 38a5 313d
00000140: 198c 383d 631a a03d 8e23 cb3c 71c7 293d
00000150: 94ff 043b 5768 07bd 29bf 593d ab6d 5e3d
00000160: a173 1c3d 057f cf3c 4ec3 8e3c eb47 393d
00000170: a344 853a 1d4f 29bd 1f46 583c 042b d23c
00000180: 54d5 cd3c 98ef ecbc 43d6 d23c 5d13 063c
00000190: 685d 123d 566e d03b 507d 6dbd c4d7 383c
000001a0: 72ed 143d 4ff2 1b3d dd8c 8cbc d62d 80bd
000001b0: 6ba8 363c f305 253d a48b 763b 6939 06bc
000001c0: 2209 0fbc 3c4f 49bd 58bd ee3b be7f 2cbd
000001d0: cfb5 853c cd31 66bd f404 7abd d6ac 7cbc
000001e0: e74a 9fbc d7b0 00bc 34c4 1d3d f110 dfbc
000001f0: 6264 51bc 855a 1a3b f82f 723b 54d6 b13b
00000200: 88a2 0c3d 8a62 0f3c 9a46 3abc d73d f13c
00000210: 3deb c13c 79ec 8b3d a028 413c 36fb d13c
00000220: a202 01ba 0a0f 29bd f37e 48bd a564 b33b
00000230: bb87 2b3d 3a22 a03c a540 f6bb 4087 99bc
00000240: a492 06bd f625 af3b 0550 9abc 3d87 ec3c
00000250: 5f46 933c 96e3 933c 4107 483c 6f7e ef3a
00000260: 9712 edbc 174a ffbc 7233 9abb 5140 4abd
00000270: 3bdd 3ebd 9f28 93bd 9f2e 94bb 38b5 84bb
00000280: eeb4 d33c f7df 4cbc a411 71bd c28e 21bd
00000290: 62e2 ef3b 77f1 e7bb c644 9dba de99 99bc
000002a0: 2daf 863d 1871 8f3b 6cc6 a4bc 3682 613c
000002b0: dc23 0fbc 46f9 e23c 5e23 593c acd9 0d3b
000002c0: 7bbb 5dbd 6c1c 89bc 7813 773d 8721 5c3d
000002d0: 6521 7cbc c7d0 aa3c 6fd6 4ebd 102a 073a
000002e0: 2344 23bd 335a c13c 152b d23c 1b64 1dbc
000002f0: efb5 a6bb 1d9a ca3c 0bb5 77bc d16b d1ba
00000300: 0d36 cfbc b5e6 fcbc 5e83 5bbd 1b6f 30bc
00000310: 6266 61bc c272 47bc 5666 6bbc a1b4 1bbd
00000320: 137e 2a3c 6337 353d 47ce 283c f90b aa3b
00000330: 289b adbc add9 edbb f77a 7c3c 7b3c 85bd
00000340: 0835 8cbb cb08 0c3b 293f d03c cfec 66bc
00000350: 3d47 16bd 5d19 82bd f5ea 73bd 0f2b f9bc
00000360: fe30 953c f59c 6fbd 025b bbbb 7b30 eabc
00000370: a12b 02bd 2026 babc 4aaf 373d 1836 94bc
00000380: fce9 cebc 25c5 ae3c b5a7 d33c 5bc0 203d
00000390: 7ff1 023d a57b 903c 27cd f43b 983a ffbb
000003a0: 95ce d0ba 5190 f53c 02a9 98bc 3dc3 52bc
000003b0: e9c2 0bbd 3e00 2cbc 681b 153d b6ea 03bc
000003c0: 18c2 d13c 9f47 8cbc 7a9f 88bd 4b7f 923c
000003d0: 2a33 2d3c 6f95 153d 3230 493c 3fbf 8abc
000003e0: 77c5 10bd 7c73 95bb 7ef0 53bd 3565 26bd
000003f0: a9e2 853b fca9 28bc a520 283d 9372 21bd

layer2.0.bias f4 [32]
0.03711146 0.00636858 -0.028554827 0.045618378 0.004752447 -0.025298994 -0.0065870183 0.04718669
-0.03327777 -0.018321153 -0.030447291 0.036342856 -0.0016697259 -0.04796615 0.028018964 -0.027352097
0.046156023 -0.020293117 0.01679327 0.012319518 -0.002727361 0.016837975 0.030298501 -0.013981647
-0.033514284 -0.035447653 -0.033086617 -0.04649351 -0.04786884 -0.022652708 0.030965969 -0.033825424
00000000: 3002 183d 85af d03b d0eb e9bc 56da 3a3d
00000010: 6aba 9b3b d63f cfbc ead7 d7bb d546 413d
00000020: 454e 08bd 3e16 96bc 996c f9bc 3fdc 143d
00000030: b4da daba 2778 44bd 0788 e53c 8111 e0bc
00000040: 190e 3d3d c03d a6bc 0a92 893c ced7 493c
00000050: 86bd 32bb cbef 893c 9034 f83c 4713 65bc
00000060: 4646 09bd 8f31 11bd d585 07bd fb6f 3ebd
00000070: 1e12 44bd 2c92 b9bc 58ac fd3c 878c 0abd

layer2.1.weight f4 [32]
1.177323 1.1627365 1.1692296 1.1639031 1.1988797 1.16852 1.1187836 1.1514848
1.1883888 1.1945412 1.2428991 1.2051336 1.217139 1.1644788 1.1932557 1.2218496
1.1409905 1.2596972 1.1729268 1.1782227 1.2078083 1.1482713 1.1986743 1.1833142
1.1985153 1.2033756 1.1947286 1.1880027 1.1793787 1.2251611 1.2035658 1.1447841
00000000: 85b2 963f 8dd4 943f 51a9 953f c7fa 943f
00000010: e474 993f 1092 953f 4d34 8f3f db63 933f
00000020: 201d 983f bae6 983f 5117 9f3f d141 9a3f
00000030: 36cb 9b3f a40d 953f 9abc 983f 9165 9c3f
00000040: fa0b 923f c23d a13f 7722 963f 00d0 963f
00000050: 7699 9a3f 8efa 923f 296e 993f d776 973f
00000060: f368 993f 3608 9a3f deec 983f 7910 983f
00000070: e2f5 963f 14d2 9c3f 720e 9a3f 4988 923f

layer2.1.bias f4 [32]
0.07132069 0.051542174 0.040452592 0.06040487 0.07141066 0.094890796 0.017726852 0.08154777
0.09917924 0.108222365 0.04402206 0.08725771 0.0879133 0.042490594 0.09281054 0.06681206
0.06296627 0.08016639 0.0896726 0.06794786 0.068820246 0.08954219 0.0579669 0.08107401
0.052121192 0.066661544 0.06331202 0.066397175 0.060614124 0.09054481 0.08999896 0.08626584
00000000: 9510 923d e31d 533d 9eb1 253d 196b 773d
00000010: c13f 923d 1b56 c23d e737 913c 8402 a73d
00000020: 7c1e cb3d b0a3 dd3d 7a50 343d 2cb4 b23d
00000030: e30b b43d 9e0a 2e3d 7413 be3d c3d4 883d
00000040: 76f4 803d 472e a43d 45a6 b73d 3f28 8b3d
00000050: a1f1 8c3d e561 b73d b36e 6d3d 210a a63d
00000060: 087d 553d d985 883d bba9 813d 3efb 873d
00000070: 8446 783d 8f6f b93d 6051 b83d 25ac b03d

layer2.1.running_mean f4 [32]
-0.62102634 0.8913746 -0.7220168 0.84385645 0.049151257 -0.8174826 -0.25369242 0.7285713
0.27849147 -0.51293534 0.028566184 -0.7492509 -0.8415775 -0.19549376 -0.30164135 0.013080474
0.85098815 -0.8304751 -0.6326051 -0.095297724 -0.63856596 0.95722324 0.031409677 -0.78208226
-0.6417546 -0.4778835 -0.46973532 0.7726653 0.5646717 -0.68415886 -0.5608541 -0.48961085
00000000: 95fb 1ebf 2031 643f 18d6 38bf fa06 583f
00000010: d452 493d 8a46 51bf f9e3 81be a683 3a3f
00000020: 6f96 8e3e bb4f 03bf a103 ea3c e8ce 3fbf
00000030: 9f71 57bf 842f 48be bc70 9abe 7c4f 563c
00000040: 5cda 593f 049a 54bf 68f2 21bf 742b c3bd
00000050: 0f79 23bf 950c 753f 6fa7 003d 8b36 48bf
00000060: 084a 24bf 25ad f4be 2681 f0be 65cd 453f
00000070: 538e 103f 0925 2fbf 2294 0fbf 46ae fabe

layer2.1.running_var f4 [32]
0.16326626 0.24434291 0.29521528 0.328883 0.23078048 0.19121562 0.12869523 0.35944697
0.24477947 0.18848772 0.15623936 0.28885296 0.2057125 0.19501588 0.25708258 0.18047895
0.31891564 0.2807217 0.27316827 0.21462508 0.2505348 0.37460515 0.1981744 0.26679432
0.22016463 0.14728199 0.21942551 0.2782577 0.18015303 0.21720238 0.2289716 0.2811695
00000000: 452f 273e 0735 7a3e 7526 973e 5a63 a83e
00000010: b851 6c3e 07ce 433e afc8 033e 6f09 b83e
00000020: 78a7 7a3e ed02 413e 36fd 1f3e 89e4 933e
00000030: 4ca6 523e 3eb2 473e 54a0 833e 79cf 383e
00000040: e948 a33e c1ba 8f3e b6dc 8b3e adc6 5b3e
00000050: 1946 803e 3fcc bf3e 3bee 4a3e 4499 883e
00000060: d672 613e 17d1 163e 15b1 603e cb77 8e3e
00000070: 097a 383e 4d6a 5e3e 8877 6a3e 73f5 8f3e

fc.weight f4 [10, 896]
0.0126816835 -0.017618641 -0.02389408 -0.0044290395 0.033428036 0.008211677 0.026384065 0.047676146
0.051764034 -0.055294693 -0.048280217 0.00254685 0.061580013 -0.056521673 -0.029456202 -0.084413454
0.034625612 0.03128977 -0.048909046 -0.071547374 -0.042385727 0.04017741 -0.0123321 -0.0389075
-0.024523903 -0.0076300623 0.011831426 -0.049544856 0.01927341 -0.020759027 0.014778131 -0.017329058
-0.022100031 -0.008227943 -0.053782083 -0.07403516 0.0072982316 0.0533526 -0.03784175 -0.041076235
-0.023539193 -0.019898122 0.03217729 0.007459092 -0.0054223086 -0.068936475 0.030259281 0.049942855
-0.03752125 0.013370445 0.02700098 0.0037595218 0.00068541564 0.03826374 0.009923853 0.043913964
-0.006506399 0.0030079552 0.0024526534 -0.00457011 0.019715972 -0.02021422 0.03340751 0.0014098723
-0.048891153 -0.055032097 0.0068957442 -0.028508827 -0.05817848 -0.032158908 -0.039464716 -0.034657802
-0.03225379 -0.043262325 -0.062843665 0.025998803 0.021985888 0.015264834 0.0056125554 0.04324054
-0.018524041 -0.025817323 -0.007628218 0.01814319 -0.044899195 0.010858012 0.017129086 -0.03338176
-0.023594946 -0.029144997 0.010627663 -0.044526786 -0.04075519 0.047244813 0.0630916 -0.014047466
-0.046389744 0.027622197 0.07727182 -0.029836148 -0.05716796 0.009740473 -0.052889213 -0.005826469
-0.0067018913 0.0067610205 0.046928458 -0.0116992295 0.008803706 0.018601561 -0.023872618 -0.017244011
0.025733234 -0.0015354853 -0.012758098 0.043236226 0.030065628 0.023498269 0.01885573 0.088408254
0.047693796 0.027797423 0.074711435 0.08853683 -0.026235837 -0.042274795 0.060564302 -0.02402562
-0.005866559 -0.05568046 -0.0074856402 0.040105056 0.04963185 -0.05301632 -0.047840066 0.029671216
0.0202978 0.026208296 -0.020470671 -0.010143654 0.004906701 0.026581392 0.043341614 -0.010751992
0.0018870784 0.029884743 -0.032053795 -0.0028837863 -0.036032915 0.00042131075 -0.052254137 0.025171416
-0.008157866 0.012362544 -0.070563436 -0.007497939 0.07791601 0.03620439 -0.027262937 0.040184982
0.035581265 -0.032154262 0.016275551 0.001751712 -0.0021769188 0.00750928 0.01677597 0.00059523986
-0.03562074 0.07311152 0.06566686 -0.055281118 -0.007540654 0.007467138 0.012109078 -0.074936904
-0.03672176 -0.008487128 -0.04467752 -0.0603363 -0.030782504 0.04167765 -0.098562546 -0.06902472
-0.017979573 -0.020399809 -0.032132693 -0.03527237 -0.02611763 0.022514598 -0.013485472 -0.026789889
-0.022579132 -0.014900478 -0.021220488 0.02422103 -0.019058995 -0.031186376 -0.041651968 0.009408995
-0.048684705 -0.032189496 0.023954483 -0.0017114305 -0.071279295 0.0048936675 0.019640503 -0.048620585
-0.0618167 -0.024551049 0.05643761 -0.04238292 0.024905438 -0.026741767 -0.0025112762 0.030013377
-0.009782596 -0.01494895 0.04242201 0.02523827 0.048783213 -0.029066607 0.0157794 -0.030383065
-0.020437097 0.0050622034 0.022595324 -0.022109866 -0.01172759 0.022269063 -0.003230661 0.028887343
-0.03927183 0.040139176 0.07387536 -0.049396098 -0.03866495 0.01588196 0.0209858 -0.06542273
-0.077481285 0.05510656 -0.0010428737 -0.05266331 0.018221699 0.05769225 0.0036296279 0.02567518
-0.006507999 0.0011034893 -0.012952772 0.008956785 -0.024205498 -0.012480923 -0.040688887 -0.026138939
00000000: d6c6 4f3c f854 90bc 85bd c3bc 7a21 91bb
00000010: d6eb 083d 458a 063c 6523 d83c 1048 433d
00000020: 8606 543d b07c 62bd 7ac1 45bd 0de9 263b
00000030: 533b 7c3d 4583 67bd 224e f1bc f6e0 acbd
00000040: 96d3 0d3d b429 003d da54 48bd 6e87 92bd
00000050: a89c 2dbd 1191 243d 940c 4abc 795d 1fbd
00000060: 5ae6 c8bc 9a05 fabb 99d8 413c 8cef 4abd
00000070: 45e3 9d3c d60e aabc f91f 723c abf5 8dbc
00000080: 200b b5bc 7fce 06bc 9a4a 5cbd bf9f 97bd
00000090: 0126 ef3b 4288 5a3d f3ff 1abd 8e3f 28bd
000000a0: 44d5 c0bc 6301 a3bc 56cc 033d 666b f43b
000000b0: 9fad b1bb 912e 8dbd 50e2 f73c e190 4c3d
000000c0: e2af 19bd b60f 5b3c 2931 dd3c 4f62 763b
000000d0: 77ad 333a 70ba 1c3d a897 223c 21df 333d
000000e0: a133 d5bb 1d21 453b b2bc 203b dcc0 95bb
000000f0: 6483 a13c 4b98 a5bc 50d6 083d 77cb b83a
00000100: 1742 48bd 5669 61bd b2f5 e13b 588b e9bc
00000110: 8f4c 6ebd 0fb9 03bd c1a5 21bd 57f5 0dbd
00000120: 8d1c 04bd d633 31bd 2eb4 80bd 71fb d43c
00000130: c01b b43c 5b19 7a3c 87e9 b73b fe1c 313d
00000140: bbbf 97bc da7e d3bc 21f6 f9bb 07a1 943c
00000150: 38e8 37bd cee5 313c 4c52 8c3c 50bb 08bd
00000160: 304a c1bc 7dc1 eebc a61f 2e3c b861 36bd
00000170: eaee 26bd c783 413d 2b36 813d 5827 66bc
00000180: 2c03 3ebd f247 e23c b040 9e3d f06a f4bc
00000190: f328 6abd 8196 1f3c 5ca2 58bd f7eb bebb
000001a0: 8a9b dbbb 8d8b dd3b 0e38 403d 20ae 3fbc
000001b0: 6b3d 103c 4d62 983c 8290 c3bc 5043 8dbc
000001c0: 81ce d23c 5642 c9ba 5707 51bc 7818 313d
000001d0: 314c f63c 717f c03c 5577 9a3c 630f b53d
000001e0: 925a 433d 6cb7 e33c 4f02 993d cc52 b53d
000001f0: 8aec d6bc 5628 2dbd 4612 783d 61d1 c4bc
00000200: 443c c0bb 3211 64bd 1a4a f5bb 3345 243d
00000210: c44a 4b3d a427 59bd f2f3 43bd 0d11 f33c
00000220: 9247 a63c c8b2 d63c 1cb2 a7bc 9231 26bc
00000230: 64c8 a03b 38c1 d93c fa86 313d 2029 30bc
00000240: d857 f73a d9d0 f43c d74a 03bd e8fd 3cbb
00000250: 4097 13bd 5fe3 dc39 6f08 56bd 4934 ce3c
00000260: 92a8 05bc 458c 4a3c 9083 90bd 45b1 f5bb
00000270: 6e92 9f3d 0e4b 143d 8656 dfbc 0299 243d
00000280: a9bd 113d 30b4 03bd 4e54 853c b499 e53a
00000290: a3aa 0ebb 6810 f63b c26d 893c df09 1c3a
000002a0: 0ee7 11bd 7ebb 953d 597c 863d 746e 62bd
000002b0: 9717 f7bb e5ae f43b 2765 463c 8578 99bd
000002c0: 8e69 16bd 980d 0bbc c6ff 36bd 3223 77bd
000002d0: 972b fcbc 2fb6 2a3d 29db c9bd d55c 8dbd
000002e0: e649 93bc 801d a7bc 929d 03bd c379 10bd
000002f0: a4f4 d5bc 8970 b83c 2bf2 5cbc 7876 dbbc
00000300: dff7 b8bc 2221 74bc 97d6 adbc 2e6b c63c
00000310: 9c21 9cbc 927a ffbc 419b 2abd 2f28 1a3c
00000320: 9d69 47bd 22d9 03bd 313c c43c 1452 e0ba
00000330: e1fa 91bd 0f5b a03b 1fe5 a03c 6126 47bd
00000340: 8233 7dbd 481f c9bc 202b 673d b699 2dbd
00000350: 7d06 cc3c 8d11 dbbc 3994 24bb 9dde f53c
00000360: 2e47 20bc 71ec 74bc b4c2 2d3d 7dc0 ce3c
00000370: e8d0 473d 181d eebc cd43 813c e8e5 f8bc
00000380: b36b a7bc d7e0 a53b d419 b93c c01f b5bc
00000390: 1425 40bc 9c6d b63c 7fb9 53bb 26a5 ec3c
000003a0: 80db 20bd fa68 243d f74b 973d 9053 4abd
000003b0: 235f 1ebd e21a 823c 6aea ab3c 5afc 85bd
000003c0: 82ae 9ebd 6bb7 613d 09b1 88ba 7cb5 57bd
000003d0: ac45 953c b54e 6c3d 0ddf 6d3b c154 d23c
000003e0: 0d41 d5bb f5a2 903a dd37 54bc 7bbf 123c
000003f0: 9c4a c6bc c97c 4cbc 64a9 26bd 5421 d6bc

fc.bias f4 [10]
-0.024818715 -0.0035230564 -0.0077219363 -0.017362738 0.030400937 -0.001079779 -0.036719013 0.02152913
-0.024717629 -0.014104712
00000000: 9e50 cbbc 14e3 66bb 4c08 fdbb 4d3c 8ebc
00000010: 630b f93c 5f87 8dba ad66 16bd dc5d b03c
00000020: a07c cabc 7317 67bc
